# Ultralytics AGPL-3.0 License - https://ultralytics.com/license

# YOLO26 + X-Restormer++ distilled all-weather refinement.

nc: 80
end2end: True
reg_max: 1
scales:
  n: [0.50, 0.25, 1024]
  s: [0.50, 0.50, 1024]
  m: [0.50, 1.00, 512]
  l: [1.00, 1.00, 512]
  x: [1.00, 1.50, 512]

backbone:
  - [-1, 1, Conv, [64, 3, 2]]
  - [-1, 1, Conv, [128, 3, 2]]
  - [-1, 2, C3k2, [256, False, 0.25]]
  - [-1, 1, Conv, [256, 3, 2]]
  - [-1, 2, C3k2, [512, False, 0.25]]
  - [-1, 1, XRestormerPPBlock, [512, 2.0, 4]]
  - [-1, 1, Conv, [512, 3, 2]]
  - [-1, 2, C3k2, [512, True]]
  - [-1, 1, XRestormerPPBlock, [512, 2.0, 4]]
  - [-1, 1, Conv, [1024, 3, 2]]
  - [-1, 2, C3k2, [1024, True]]
  - [-1, 1, SPPF, [1024, 5, 3, True]]
  - [-1, 2, C2PSA, [1024]]
  - [-1, 1, XRestormerPPBlock, [1024, 2.0, 4]]

head:
  - [-1, 1, nn.Upsample, [None, 2, "nearest"]]
  - [[-1, 8], 1, Concat, [1]]
  - [-1, 2, C3k2, [512, True]]

  - [-1, 1, nn.Upsample, [None, 2, "nearest"]]
  - [[-1, 5], 1, Concat, [1]]
  - [-1, 2, C3k2, [256, True]]

  - [-1, 1, Conv, [256, 3, 2]]
  - [[-1, 16], 1, Concat, [1]]
  - [-1, 2, C3k2, [512, True]]

  - [-1, 1, Conv, [512, 3, 2]]
  - [[-1, 13], 1, Concat, [1]]
  - [-1, 1, C3k2, [1024, True, 0.5, True]]

  - [[19, 22, 25], 1, Detect, [nc]]
